…
2022-12-03 02:17:38.512153: I tensorflow/core/common_runtime/gpu/gpu_device.cc:1613] Created device /job:localhost/replica:0/task:0/device:GPU:0 with 8903 MB memory:  -> device: 0, name: NVIDIA GeForce RTX 2080 Ti, pci bus id: 0000:01:00.0, compute capability: 7.5
Model: "facial-keypoints-left-eye-center"
__________________________________________________________________________________________________
 Layer (type)                   Output Shape         Param #     Connected to                     
==================================================================================================
 InputLayer (InputLayer)        [(None, 96, 96, 1)]  0           []                               
                                                                                                  
 rescaling (Rescaling)          (None, 96, 96, 1)    0           ['InputLayer[0][0]']             
                                                                                                  
 conv_101 (Conv2D)              (None, 96, 96, 32)   320         ['rescaling[0][0]']              
                                                                                                  
 norm_101 (BatchNormalization)  (None, 96, 96, 32)   128         ['conv_101[0][0]']               
                                                                                                  
 conv_102 (Conv2D)              (None, 96, 96, 32)   9248        ['norm_101[0][0]']               
                                                                                                  
 norm_102 (BatchNormalization)  (None, 96, 96, 32)   128         ['conv_102[0][0]']               
                                                                                                  
 maxp_101 (MaxPooling2D)        (None, 48, 48, 32)   0           ['norm_102[0][0]']               
                                                                                                  
 conv_201 (Conv2D)              (None, 48, 48, 64)   18496       ['maxp_101[0][0]']               
                                                                                                  
 norm_201 (BatchNormalization)  (None, 48, 48, 64)   256         ['conv_201[0][0]']               
                                                                                                  
 conv_202 (Conv2D)              (None, 48, 48, 64)   36928       ['norm_201[0][0]']               
                                                                                                  
 norm_202 (BatchNormalization)  (None, 48, 48, 64)   256         ['conv_202[0][0]']               
                                                                                                  
 maxp_201 (MaxPooling2D)        (None, 24, 24, 64)   0           ['norm_202[0][0]']               
                                                                                                  
 conv_301 (Conv2D)              (None, 24, 24, 128)  73856       ['maxp_201[0][0]']               
                                                                                                  
 norm_301 (BatchNormalization)  (None, 24, 24, 128)  512         ['conv_301[0][0]']               
                                                                                                  
 conv_302 (Conv2D)              (None, 24, 24, 128)  147584      ['norm_301[0][0]']               
                                                                                                  
 norm_302 (BatchNormalization)  (None, 24, 24, 128)  512         ['conv_302[0][0]']               
                                                                                                  
 conv_303 (Conv2D)              (None, 24, 24, 128)  147584      ['norm_302[0][0]']               
                                                                                                  
 norm_303 (BatchNormalization)  (None, 24, 24, 128)  512         ['conv_303[0][0]']               
                                                                                                  
 maxp_301 (MaxPooling2D)        (None, 12, 12, 128)  0           ['norm_303[0][0]']               
                                                                                                  
 conv_401 (Conv2D)              (None, 12, 12, 256)  295168      ['maxp_301[0][0]']               
                                                                                                  
 norm_401 (BatchNormalization)  (None, 12, 12, 256)  1024        ['conv_401[0][0]']               
                                                                                                  
 conv_402 (Conv2D)              (None, 12, 12, 256)  590080      ['norm_401[0][0]']               
                                                                                                  
 norm_402 (BatchNormalization)  (None, 12, 12, 256)  1024        ['conv_402[0][0]']               
                                                                                                  
 conv_403 (Conv2D)              (None, 12, 12, 256)  590080      ['norm_402[0][0]']               
                                                                                                  
 norm_403 (BatchNormalization)  (None, 12, 12, 256)  1024        ['conv_403[0][0]']               
                                                                                                  
 maxp_401 (MaxPooling2D)        (None, 6, 6, 256)    0           ['norm_403[0][0]']               
                                                                                                  
 conv_501 (Conv2D)              (None, 6, 6, 256)    590080      ['maxp_401[0][0]']               
                                                                                                  
 norm_501 (BatchNormalization)  (None, 6, 6, 256)    1024        ['conv_501[0][0]']               
                                                                                                  
 conv_502 (Conv2D)              (None, 6, 6, 256)    590080      ['norm_501[0][0]']               
                                                                                                  
 norm_502 (BatchNormalization)  (None, 6, 6, 256)    1024        ['conv_502[0][0]']               
                                                                                                  
 conv_503 (Conv2D)              (None, 6, 6, 256)    590080      ['norm_502[0][0]']               
                                                                                                  
 norm_503 (BatchNormalization)  (None, 6, 6, 256)    1024        ['conv_503[0][0]']               
                                                                                                  
 maxp_501 (MaxPooling2D)        (None, 3, 3, 256)    0           ['norm_503[0][0]']               
                                                                                                  
 flatten (Flatten)              (None, 2304)         0           ['maxp_501[0][0]']               
                                                                                                  
 fc_1 (Dense)                   (None, 2048)         4720640     ['flatten[0][0]']                
                                                                                                  
 norm_fc1 (BatchNormalization)  (None, 2048)         8192        ['fc_1[0][0]']                   
                                                                                                  
 fc_2 (Dense)                   (None, 2048)         4196352     ['norm_fc1[0][0]']               
                                                                                                  
 norm_fc2 (BatchNormalization)  (None, 2048)         8192        ['fc_2[0][0]']                   
                                                                                                  
 Left_Eye_Center_X (Dense)      (None, 1)            2049        ['norm_fc2[0][0]']               
                                                                                                  
 Left_Eye_Center_Y (Dense)      (None, 1)            2049        ['norm_fc2[0][0]']               
                                                                                                  
==================================================================================================
Total params: 12,625,506
Trainable params: 12,613,090
Non-trainable params: 12,416
__________________________________________________________________________________________________
…
2022-12-03 02:24:17.177718: I tensorflow/core/common_runtime/gpu/gpu_device.cc:1613] Created device /job:localhost/replica:0/task:0/device:GPU:0 with 8903 MB memory:  -> device: 0, name: NVIDIA GeForce RTX 2080 Ti, pci bus id: 0000:01:00.0, compute capability: 7.5
Model: "facial-keypoints-left-eye-inner-corner"
__________________________________________________________________________________________________
 Layer (type)                   Output Shape         Param #     Connected to                     
==================================================================================================
 InputLayer (InputLayer)        [(None, 96, 96, 1)]  0           []                               
                                                                                                  
 rescaling (Rescaling)          (None, 96, 96, 1)    0           ['InputLayer[0][0]']             
                                                                                                  
 conv_101 (Conv2D)              (None, 96, 96, 32)   320         ['rescaling[0][0]']              
                                                                                                  
 norm_101 (BatchNormalization)  (None, 96, 96, 32)   128         ['conv_101[0][0]']               
                                                                                                  
 conv_102 (Conv2D)              (None, 96, 96, 32)   9248        ['norm_101[0][0]']               
                                                                                                  
 norm_102 (BatchNormalization)  (None, 96, 96, 32)   128         ['conv_102[0][0]']               
                                                                                                  
 maxp_101 (MaxPooling2D)        (None, 48, 48, 32)   0           ['norm_102[0][0]']               
                                                                                                  
 conv_201 (Conv2D)              (None, 48, 48, 64)   18496       ['maxp_101[0][0]']               
                                                                                                  
 norm_201 (BatchNormalization)  (None, 48, 48, 64)   256         ['conv_201[0][0]']               
                                                                                                  
 conv_202 (Conv2D)              (None, 48, 48, 64)   36928       ['norm_201[0][0]']               
                                                                                                  
 norm_202 (BatchNormalization)  (None, 48, 48, 64)   256         ['conv_202[0][0]']               
                                                                                                  
 maxp_201 (MaxPooling2D)        (None, 24, 24, 64)   0           ['norm_202[0][0]']               
                                                                                                  
 conv_301 (Conv2D)              (None, 24, 24, 128)  73856       ['maxp_201[0][0]']               
                                                                                                  
 norm_301 (BatchNormalization)  (None, 24, 24, 128)  512         ['conv_301[0][0]']               
                                                                                                  
 conv_302 (Conv2D)              (None, 24, 24, 128)  147584      ['norm_301[0][0]']               
                                                                                                  
 norm_302 (BatchNormalization)  (None, 24, 24, 128)  512         ['conv_302[0][0]']               
                                                                                                  
 conv_303 (Conv2D)              (None, 24, 24, 128)  147584      ['norm_302[0][0]']               
                                                                                                  
 norm_303 (BatchNormalization)  (None, 24, 24, 128)  512         ['conv_303[0][0]']               
                                                                                                  
 maxp_301 (MaxPooling2D)        (None, 12, 12, 128)  0           ['norm_303[0][0]']               
                                                                                                  
 conv_401 (Conv2D)              (None, 12, 12, 256)  295168      ['maxp_301[0][0]']               
                                                                                                  
 norm_401 (BatchNormalization)  (None, 12, 12, 256)  1024        ['conv_401[0][0]']               
                                                                                                  
 conv_402 (Conv2D)              (None, 12, 12, 256)  590080      ['norm_401[0][0]']               
                                                                                                  
 norm_402 (BatchNormalization)  (None, 12, 12, 256)  1024        ['conv_402[0][0]']               
                                                                                                  
 conv_403 (Conv2D)              (None, 12, 12, 256)  590080      ['norm_402[0][0]']               
                                                                                                  
 norm_403 (BatchNormalization)  (None, 12, 12, 256)  1024        ['conv_403[0][0]']               
                                                                                                  
 maxp_401 (MaxPooling2D)        (None, 6, 6, 256)    0           ['norm_403[0][0]']               
                                                                                                  
 conv_501 (Conv2D)              (None, 6, 6, 256)    590080      ['maxp_401[0][0]']               
                                                                                                  
 norm_501 (BatchNormalization)  (None, 6, 6, 256)    1024        ['conv_501[0][0]']               
                                                                                                  
 conv_502 (Conv2D)              (None, 6, 6, 256)    590080      ['norm_501[0][0]']               
                                                                                                  
 norm_502 (BatchNormalization)  (None, 6, 6, 256)    1024        ['conv_502[0][0]']               
                                                                                                  
 conv_503 (Conv2D)              (None, 6, 6, 256)    590080      ['norm_502[0][0]']               
                                                                                                  
 norm_503 (BatchNormalization)  (None, 6, 6, 256)    1024        ['conv_503[0][0]']               
                                                                                                  
 maxp_501 (MaxPooling2D)        (None, 3, 3, 256)    0           ['norm_503[0][0]']               
                                                                                                  
 flatten (Flatten)              (None, 2304)         0           ['maxp_501[0][0]']               
                                                                                                  
 fc_1 (Dense)                   (None, 2048)         4720640     ['flatten[0][0]']                
                                                                                                  
 norm_fc1 (BatchNormalization)  (None, 2048)         8192        ['fc_1[0][0]']                   
                                                                                                  
 fc_2 (Dense)                   (None, 2048)         4196352     ['norm_fc1[0][0]']               
                                                                                                  
 norm_fc2 (BatchNormalization)  (None, 2048)         8192        ['fc_2[0][0]']                   
                                                                                                  
 Left_Eye_Inner_Corner_X (Dense  (None, 1)           2049        ['norm_fc2[0][0]']               
 )                                                                                                
                                                                                                  
 Left_Eye_Inner_Corner_Y (Dense  (None, 1)           2049        ['norm_fc2[0][0]']               
 )                                                                                                
                                                                                                  
==================================================================================================
Total params: 12,625,506
Trainable params: 12,613,090
Non-trainable params: 12,416
…
